Data and Codes/Neural_Network_Controller.pth (torch, 150053 bytes, 10 tensors)

0.weight f4 [128, 198]
000000 e2 94 83 3d 8b 0c 8d bb b6 1d 4d bc 50 73 3e bd
       0.064248815 -0.0043044738 -0.012519291 -0.04649669
000010 c1 15 82 3d 7d c8 42 3d fd b8 83 bd ad b7 5c bd
       0.063518055 0.04755448 -0.06431768 -0.053886104
000020 0d 00 e8 bc 68 85 58 bd 85 3d 4c ba db b9 f1 bc
       -0.028320337 -0.0528616 -0.00077911495 -0.029507568
000030 6a 5b de bc ca 1b 3c bd 29 bd d6 bd 58 17 a7 bd
       -0.027143199 -0.04592494 -0.10485298 -0.08158749
000040 28 be 40 3b c4 4d f2 bd a2 8a f5 bd f0 56 74 bd
       0.0029410217 -0.11831239 -0.11989333 -0.059653223
000050 da 08 c8 bd eb ea c8 bd 77 78 96 bd 14 fc 84 bd
       -0.09767313 -0.09810432 -0.073471956 -0.064933926
000060 e7 22 f9 bc f8 11 e4 bd 5f fd c5 bd ae 5a ae bc
       -0.03041215 -0.1113624 -0.09667467 -0.021283474
000070 a5 1e 13 be e7 eb 1b be 43 e6 27 be c1 fc db bd
       -0.14367159 -0.15226708 -0.16396432 -0.10741568
000080 e4 ee 85 bd 16 78 b8 bc 5d 51 12 be 8c 91 d9 bd
       -0.065397054 -0.022518199 -0.1428885 -0.10623464
000090 bb 2f d1 bd de 89 15 be 93 93 cd bd 27 42 2c be
       -0.10214182 -0.14603373 -0.10037913 -0.1682211
0000a0 9f 5c f8 bd af 72 2f be d4 84 06 be e5 43 44 be
       -0.12127041 -0.17133592 -0.13136607 -0.19166525
0000b0 0a d2 5a be 21 e8 48 be b3 b3 0f be 32 1c 32 be
       -0.21369186 -0.196198 -0.14033394 -0.17393568
0000c0 d0 ae 8d be f5 83 d6 be b4 7a 86 bd 1f 25 3f bd
       -0.27672434 -0.4189755 -0.065663725 -0.04666626
0000d0 40 8f bb bc 7a 9b 9c 3c 85 f4 84 bc e2 6f 93 bd
       -0.022895455 0.019117106 -0.016229877 -0.07199074
0000e0 e4 76 85 bd 2e 0d 6f 3c 90 f6 70 bd d9 b1 53 bd
       -0.06516817 0.014590545 -0.05882889 -0.05168328
0000f0 52 4d 4e 3d 31 ac 1a 3c cf 48 67 bd 13 17 bc 3c
       0.050366707 0.009440468 -0.05646592 0.022960221
000100 9d 81 0e 3d 1a 51 3e 3d 16 58 5f 3c 22 d2 ca bc
       0.034791578 0.046464063 0.013631841 -0.024758402
000110 6a f3 fb bc 5f c9 b9 3c 63 02 65 bd 5e 86 93 bc
       -0.030755717 0.022679029 -0.05591048 -0.018008407
000120 4e 14 ba 3c 0f 86 2a 3d b3 fc a9 39 86 da 2b 3c
       0.02271476 0.041631754 0.00032422467 0.010489112
000130 1e 82 68 3c 7e 8a 4d 3d a2 96 af bc f4 c2 e8 bb
       0.014191179 0.050180905 -0.021434132 -0.0071033183
000140 4d f1 9c 3d 42 e3 8d 3d 20 9e 2f bc 1b 97 64 3c
       0.07663212 0.069281116 -0.010718852 0.013952042
000150 e6 54 19 3b 76 e3 9d 3c e0 dc ef 3a 1e 28 8c 3d
       0.002339655 0.0192735 0.0018300079 0.06843589
000160 b1 bf 9c 3d e8 53 9f 3d 76 e5 d1 3b f9 b9 8c 3d
       0.0765375 0.07779676 0.0064055277 0.06871409
000170 b1 e9 ae 3d 4f a2 f0 3d a4 e3 88 3d 2c 5f 2b 3e
       0.08540667 0.11749708 0.06684044 0.16735524
000180 9c 09 e0 3c 07 4a 98 3d 4e 45 57 3d ae 75 15 3e
       0.027348332 0.074359946 0.05255633 0.14595672
000190 02 8e 09 3c 61 ca 22 bd da a8 09 3d 00 2c 5b 3d
       0.008395674 -0.039743785 0.033608295 0.05350876
0001a0 c6 e9 5e 3c 1b e6 85 3d 46 74 be bc fb 90 8d 3d
       0.013605541 0.0653803 -0.023248803 0.069124185
0001b0 37 1f b0 3d 88 e8 60 bd ac 06 45 bc 42 28 5d bd
       0.08599704 -0.05490926 -0.0120255165 -0.05399347
0001c0 12 b4 27 bd c6 0a eb bc 41 c3 65 3d ab 66 93 bd
       -0.040943213 -0.02869166 0.05609441 -0.07197317
0001d0 db 80 07 3d ff 70 13 bd c4 21 0f 3d 3e 3a 2d 3c
       0.03308187 -0.035996433 0.03494431 0.010572968
0001e0 8b f0 14 ba 75 0b 9a bd a4 cf a6 bc 87 b8 7e 3c
       -0.00056815956 -0.075217165 -0.020362683 0.015546924
0001f0 57 91 ee 3c 48 90 02 bd ea b2 37 3d b2 b3 3e bd
       0.029122038 -0.03187588 0.04484836 -0.04655809
000200 ed b9 82 3d ce a5 38 bc c8 b3 06 bd 6c 76 ec 3c
       0.06383119 -0.01127 -0.032886297 0.028865062
000210 34 55 07 3d 96 bb 72 3c 56 93 95 3d 59 7b 08 3c
       0.03304024 0.014815232 0.07303493 0.00833019
000220 8a da 22 3c 80 ea 90 3d a0 53 4a 3d 31 37 42 3d
       0.009939799 0.07075977 0.049396157 0.047415916
000230 5e d0 9c 3d f6 cf 0f bd d8 b1 1b 3c 8b 09 d0 3c
       0.076569304 -0.035110436 0.0095028505 0.025395175
000240 86 dc 79 3d f8 6c 8f 3d 25 cd 0c 3e e2 65 c2 3d
       0.061001323 0.07003206 0.13750131 0.09492089
000250 12 b2 57 3e b7 3e 80 bc c2 91 e8 bb 3b 5f 3c bd
       0.21064022 -0.015654905 -0.007097454 -0.045989256
000260 60 d6 f2 3c ab 23 83 bd f0 49 c5 bc 0c 8b a0 3d
       0.029643238 -0.064032875 -0.024083108 0.07839021
000270 35 22 21 bd 35 33 8d bd 54 8b 76 3a 44 54 50 3d
       -0.039339263 -0.068945326 0.0009404917 0.050861612
000280 bc d9 98 bc e4 94 d8 bc 69 fd ae 3c 5b d2 4c bd
       -0.018658511 -0.026438184 0.02136107 -0.050005298
000290 33 e5 1a bd 18 37 40 3d c3 68 b8 bc 29 5d 26 bb
       -0.037816238 0.04692754 -0.022510892 -0.0025385118
0002a0 93 5f ad 3d 37 fe 94 3d 5d 07 c6 bc fb ea fd bc
       0.08465495 0.0727505 -0.024173433 -0.030995836
0002b0 c3 29 5a bd 8b 02 f0 3c ae 90 a8 3d 42 0e 1d bd
       -0.053262483 0.029298088 0.082307205 -0.038343675
0002c0 fd 09 03 3c 2f 43 00 3d 4b 9d f7 3b 20 c5 ca 39
       0.007997987 0.03131407 0.0075565926 0.00038675312
0002d0 8e 26 65 3d cf 95 c4 3b e6 0a 42 3d 3f f2 a5 bb
       0.05594497 0.005999304 0.047373675 -0.0050642784
0002e0 6c 44 30 bd 1a c3 86 3d bd 8a 95 3b 9c 9b 2f 3d
       -0.043034002 0.065801814 0.004563658 0.04287301
0002f0 94 aa d3 bb ac 18 82 3d ac 2f 8b bc 9f 78 b2 3b
       -0.0064595435 0.06352362 -0.016990505 0.005446508
000300 27 2b 06 bd 09 4c a7 bc 1f 4f a1 3d 96 b2 c0 3a
       -0.032755997 -0.020421999 0.07876419 0.001470166
000310 50 ff 13 bd 1f 5c 36 bd bf ca 92 3d 7a b4 78 bc
       -0.036132157 -0.044521447 0.07167577 -0.015179748
000320 e7 80 ac 3c 5d 2d 85 bc 69 98 9c bd ef ed 8b bc
       0.02105756 -0.016256982 -0.076462574 -0.017081229
000330 0a 14 4d 3c 13 73 87 3d 91 f6 61 bb 9f 46 1b 3e
       0.012516985 0.066137455 -0.003447924 0.15163659
000340 4c 6e 90 3d f2 40 e1 3d 69 be 96 3d 50 e8 d1 3d
       0.070522875 0.109987155 0.073605366 0.10249388
000350 06 22 45 3a 01 77 16 3c 10 42 63 bc 6f ef cc bc
       0.00075200235 0.009183646 -0.013870731 -0.025016515
000360 f8 05 ef bc cb e2 05 bd 0d 6b a5 bd dd 8c fb 3b
       -0.02917765 -0.03268699 -0.08077059 0.0076767043
000370 4a 6a 7c bd 70 a6 da bd d2 9e c0 bb 9f fe ae bc
       -0.061624803 -0.10676277 -0.005878308 -0.021361647
000380 46 94 fe bd 39 12 1a bc 2d 32 54 bd 06 29 d4 bc
       -0.12430625 -0.009403759 -0.051805664 -0.025898468
000390 a2 d2 9a bd 47 4e ab bd 5f c9 99 bd 43 71 fc bd
       -0.07559706 -0.083645396 -0.075091116 -0.123262905
0003a0 14 68 96 bd df e3 ac bd 8d 23 ef bd dd 4c 40 bd
       -0.0734407 -0.084419005 -0.11676703 -0.046948303
0003b0 b4 d7 10 bc 54 1e cf bd 0a be 82 39 7d 4b ad bb
       -0.00884049 -0.101132065 0.00024937122 -0.00528854
0003c0 a4 8b 58 bb 51 2c 6c bd d2 99 9c bd a9 a7 ac bd
       -0.0033042217 -0.05765945 -0.076465264 -0.08430416
0003d0 12 13 e0 3c 0e a4 9a bd 2a 2f d0 bd 0b d5 64 3e
       0.027352843 -0.07550822 -0.10165246 0.22346894
0003e0 81 20 84 bd f9 dc 3f bc c0 9b 01 bc 58 52 a8 bd
       -0.06451512 -0.011710399 -0.007910669 -0.08218831
0003f0 04 0e d1 bd f6 6e dd bc 77 91 ae 3d 03 9f 6a bd
       -0.102077514 -0.02703045 0.08523839 -0.05728055

0.bias f4 [128]
000000 fd 74 fd bd cf 37 50 3d 96 e4 b3 3d 06 cd fb 3c
       -0.12375829 0.050834473 0.08783834 0.030737411
000010 76 ae 05 be f5 ca ec 3d c3 2d d2 3d dd 21 e6 3c
       -0.13054833 0.115621485 0.102626346 0.02809232
000020 6a 1c 27 bd f9 11 2e 3e 4b 70 61 3d a9 12 dd 3d
       -0.040798582 0.16999044 0.05503873 0.10794575
000030 28 b4 aa bd 65 7a c6 3d 64 da 27 be d2 61 85 3d
       -0.08335143 0.09691314 -0.16391903 0.06512798
000040 23 ea e7 3d 63 bc 06 3e d7 c7 af 3c 15 00 1d be
       0.11323955 0.13157801 0.021457596 -0.15332063
000050 98 69 9b 3c 07 1c 8b bc 80 a5 95 3d ee d1 4d 3d
       0.01897125 -0.016981138 0.07306957 0.050249033
000060 4d 7e 62 bd e9 58 6e 3b 75 02 9f bd 28 3b 3b 3e
       -0.05529623 0.0036368913 -0.077641405 0.18284285
000070 4c 2a 8d 3d 64 31 4d 3c 1c f2 86 3d af 02 26 3e
       0.06892833 0.012523983 0.065891474 0.16211961
000080 9e 60 87 3d 35 d8 bd 3d 1b 10 03 3e a7 79 47 3e
       0.06610225 0.09269754 0.12799112 0.1948
000090 89 83 d3 bd a9 92 10 be 1b a9 6b 3c a0 9a 23 be
       -0.10327823 -0.14118446 0.01438358 -0.15976954
0000a0 39 11 2e 3e 3f 04 d9 3d f6 b7 19 3e 33 30 b7 bd
       0.16998757 0.10596513 0.15011582 -0.0894474
0000b0 b9 d9 ed bb d0 e1 96 3d 00 d3 2c 3e 33 30 20 bd
       -0.0072586206 0.07367289 0.16877365 -0.039108466
0000c0 18 c8 38 bd 69 85 7c 3d ae 4b a2 3d 98 a1 c8 3d
       -0.0451127 0.061650667 0.07924591 0.097964466
0000d0 92 b3 01 3e c8 3b 7d 3d 33 83 d3 bd 2a 48 a5 3d
       0.12666157 0.06182459 -0.10327759 0.08070405
0000e0 30 4e a4 bd 6a 3f 29 3e 92 87 64 bd 14 fe 7b 3e
       -0.080227256 0.16528097 -0.055793352 0.24608642
0000f0 30 a7 6e 3d 2d d2 a2 3d 00 2b 4f 3d 09 2e dc 3d
       0.05826491 0.07950244 0.050578117 0.10750968
000100 ae dd 0c 3c d9 27 34 be 64 56 9d bd e0 4b 61 bc
       0.008597774 -0.17593326 -0.07682493 -0.013751
000110 b5 04 85 bd 3a 0a 97 bd a1 bb 9b bc cf 08 28 3e
       -0.064950384 -0.073749974 -0.019010367 0.1640961
000120 d2 0c df 3b 67 d0 ef bd 36 25 c0 bd 0c 60 8a 3a
       0.006806948 -0.117096715 -0.093820974 0.0010557189
000130 c4 fb 46 bb f9 cd 11 3d f6 26 35 3d 6f 94 6f bd
       -0.0030362466 0.03559682 0.04422661 -0.058491167
000140 e4 11 29 3c 51 c6 d5 3d 92 5b 2f 3d 00 d8 0b 3d
       0.010319207 0.104382165 0.042811938 0.03414154
000150 94 04 d5 3d 82 e4 a0 3d 5e de 90 3b 9e c8 2c 3e
       0.10401264 0.078560844 0.0044210395 0.16873404
000160 24 77 73 bd 28 12 e4 3d fd f4 41 bd 47 ea 0b bb
       -0.059439793 0.111362755 -0.04735278 -0.0021349357
000170 8a f0 2f be bc 0c f8 bd 39 60 6a 3d 18 7b 51 3e
       -0.17181602 -0.12111804 0.05722067 0.20457113
000180 7b 39 0e be 5e e6 4f 3c cd 9d b5 bd a5 eb cd 3c
       -0.13889115 0.012689201 -0.08867989 0.025136778
000190 4f a9 ea 3d 62 a9 0f 3e 7a f5 ff 3d 71 83 e2 3d
       0.11458074 0.14029458 0.12497993 0.11060227
0001a0 75 d4 e5 3d d7 2a 9f 3d 31 8a 3c 3d 15 dd 0d 3d
       0.112221636 0.07771843 0.046030227 0.03463467
0001b0 9a a2 a5 bd dd 71 25 3e ae 55 ed bd 3e 21 0a 3e
       -0.080876544 0.16156717 -0.11588608 0.13489243
0001c0 9e 9d f2 bc c2 35 e7 3d 39 3b fd bc aa bf f2 3c
       -0.029616173 0.1128955 -0.030912029 0.029632408
0001d0 25 29 06 be dd 11 08 bd ed d2 92 bc 4f 55 a2 3d
       -0.13101633 -0.03322016 -0.017922843 0.079264276
0001e0 0c e8 98 bd ac a8 a1 bb 49 30 99 3d 3f 38 bb bc
       -0.074661344 -0.0049334373 0.07479913 -0.022853969
0001f0 5b f4 0f 3e 20 15 6e bb 7b 94 e1 3d e9 95 f3 bc
       0.14058058 -0.003632851 0.110146485 -0.029734569

2.weight f4 [64, 128]
000000 6d 29 7b 3d 37 91 c3 bd 61 44 00 be ae 8c 5a 3c
       0.061318804 -0.09549182 -0.12526084 0.013339205
000010 6c ed c5 bd d7 9b 05 3d e5 7a e0 bd b3 cc d7 3b
       -0.09664425 0.032619324 -0.1096094 0.0065856813
000020 e1 f2 cc bd 53 ac a0 3c cc 97 d8 3d 9c f2 5e bd
       -0.10007263 0.01961342 0.10575828 -0.05443059
000030 83 cd 9a bd 3c b4 ac bd f5 af e6 bd 14 2d fd bc
       -0.075587295 -0.084328145 -0.1126403 -0.030905284
000040 a3 e0 8a bd 1c f9 c7 bd f4 1a 56 3d c8 b0 87 bd
       -0.06781127 -0.09764311 0.0522718 -0.06625515
000050 c5 5a c5 bd 1c fe 17 bd c2 3b e7 bd 05 ef b4 3c
       -0.096364535 -0.037107572 -0.11290695 0.02208663
000060 3e ae 95 3d c4 5d 2f 3b f3 14 3c 3d ed a4 7f 3b
       0.07308625 0.002675877 0.045918416 0.0039008216
000070 af 91 da 3c 47 0c 20 bc d5 f1 00 be 5c 9d 94 3b
       0.026680795 -0.009768552 -0.12592252 0.0045353603
000080 13 9a 3a bd 58 2e a4 3c 7b cb ed 3c e1 7d b7 bd
       -0.045557093 0.02004163 0.029027691 -0.08959556
000090 d5 3a 4e 3d c0 f5 9e 3a 64 e2 19 bc b8 ef 0f 3d
       0.050349075 0.0012127683 -0.009392355 0.035140723
0000a0 1d 9b 22 bc 59 5f 8c bd c7 77 ee 3c 44 d0 a6 3d
       -0.009924677 -0.068541236 0.029109849 0.08145192
0000b0 5d 02 29 bd 04 e9 c3 bd 8a 30 2f bc 2b 7c e0 bc
       -0.04126202 -0.095659286 -0.010692725 -0.027402958
0000c0 5f 2e 76 bc aa 28 b1 bd 01 93 1f 3d 84 54 73 bc
       -0.015025704 -0.08650334 0.038958553 -0.014851693
0000d0 43 8b 62 bd 63 03 b3 bd 09 ad 7b 3d 9b 63 a6 bd
       -0.05530859 -0.0874088 0.061444316 -0.08124467
0000e0 06 f1 96 3c 9a 90 83 bd 25 36 60 3d 86 bc 00 3c
       0.018425476 -0.06424065 0.054739136 0.0078574475
0000f0 a7 1d be bd a3 52 ac 3d d2 72 ef bc e2 43 a0 bd
       -0.092829995 0.08414199 -0.029229555 -0.078254476
000100 73 c8 cc 3c a3 12 c4 bc 45 db 13 3a 15 46 e1 3b
       0.024997925 -0.023934668 0.00056402787 0.0068748095
000110 ca 1b bf bd 09 7b 34 bc 2e 90 ef bd c1 a0 e0 bd
       -0.09331472 -0.011015662 -0.11697422 -0.109681614
000120 de 74 c3 3a 30 71 c5 bc ae 53 a6 3d d1 90 95 bd
       0.0014912148 -0.024101824 0.081214294 -0.07303012
000130 1d 84 b2 bd 94 02 9a 3c 53 8a 58 bd 2e d0 94 3d
       -0.08716605 0.018800057 -0.05286629 0.072662696
000140 1a 90 c0 bd bd fc 87 bd 6b d5 b9 bd 17 60 fb 3c
       -0.09402485 -0.06640003 -0.09073909 0.030685468
000150 f9 f9 1c bc e3 31 ba bd 57 a0 c3 3a 97 60 6e bc
       -0.0095810825 -0.090915464 0.0014925104 -0.014549396
000160 9a ff 25 bd 24 ff 7c bc 26 7b b5 3a a6 bd f8 bc
       -0.040526964 -0.01544169 0.0013845905 -0.030363869
000170 63 33 23 3d 21 a2 35 3d d2 aa c8 bd 5b bc 55 3d
       0.039843928 0.04434407 -0.097982064 0.052181583
000180 af db ab bc a5 4b 9e bd 99 54 a1 bc 04 fc 43 bc
       -0.020978777 -0.07729272 -0.01969366 -0.011961941
000190 2f 5f 47 bd 80 d8 5c 3d b9 c7 ac bd f2 c6 29 bd
       -0.04867476 0.053917408 -0.084365316 -0.041449495
0001a0 4f b8 be bd 71 17 87 bd ba a3 cc bc eb 09 ff 3a
       -0.09312498 -0.06596268 -0.024980415 0.0019457912
0001b0 57 03 31 3d 8e 5b 7d bd 9b 21 58 bd 05 84 ae bd
       0.043216076 -0.06185489 -0.052766424 -0.085212745
0001c0 8d b5 69 3d 62 37 97 3c 35 97 df bc f2 d5 22 3d
       0.057057906 0.018459026 -0.02729378 0.039754815
0001d0 8e 61 4b bd ea 3f 26 3c a2 69 31 bc 23 c7 fe 3c
       -0.049653582 0.010147074 -0.0108284075 0.031100815
0001e0 29 ff 08 3c c6 7e 42 3c 5b e0 64 bd 2f 4d a7 bd
       0.008361616 0.011871045 -0.055878025 -0.081690185
0001f0 55 c5 55 bc 2f 97 4c 3d a9 da 0d bd 2f ec 60 3b
       -0.013047536 0.049948867 -0.03463236 0.0034320464
000200 86 9c 90 bd 43 bf 8e 3d df 7a 98 bd 5e 62 4f bd
       -0.070611045 0.06970074 -0.07445311 -0.05063092
000210 83 2a 31 bd db 0e 80 bd ef b3 c7 bd 10 d0 3a bd
       -0.043253433 -0.062528335 -0.097511165 -0.04560858
000220 1e 9c 90 bd 10 19 6f bd e6 1a 33 3c 11 c2 0c 3c
       -0.07061027 -0.05837351 0.010931706 0.008591191
000230 81 9d 98 3d ab 4d 75 3c 52 e8 86 bd 27 fe 9b bd
       0.074519165 0.014972131 -0.0658728 -0.07616835
000240 73 27 c8 bd d0 57 c5 bd 77 12 89 bd 2e 40 72 3c
       -0.09773149 -0.096358895 -0.06692975 0.014785809
000250 b7 53 54 3c fd 22 02 bd 1e 31 9b 3c 76 0e b3 bd
       0.012959412 -0.03177165 0.01894432 -0.087429926
000260 9b 9f 98 bd d6 15 a0 bb 5c 7a 01 bb ef 52 4d bd
       -0.07452317 -0.0048854155 -0.001975677 -0.05012792
000270 6b a2 5d bd 7b 3c 72 bc 1a b6 10 3c 0c 56 5b bd
       -0.054109972 -0.0147849275 0.008832479 -0.053548858
000280 d6 7d 42 bc a8 c4 b2 bb 39 35 80 bd 15 d5 8c 3b
       -0.011870822 -0.005455572 -0.062601514 0.0042978623
000290 d8 26 59 bd d8 37 34 3d 8c 2b 7d bd 24 57 15 bd
       -0.05301556 0.04399857 -0.061809108 -0.036460057
0002a0 b2 ce 32 bd 35 04 17 3d df 0c e5 bd 71 d6 24 3b
       -0.04365415 0.036869247 -0.111840956 0.002515223
0002b0 16 39 46 bd 11 bc 05 bd 0c 25 08 bd 39 f9 ea bd
       -0.048394285 -0.032650057 -0.033238456 -0.11473317
0002c0 eb a6 29 bd 62 19 a2 bd b9 92 c4 bc a1 6b 67 bc
       -0.04141895 -0.07914998 -0.023995744 -0.014124782
0002d0 dc 99 09 be 6d 49 dc 3c 51 a8 a5 bd fb 2e ea bd
       -0.13437599 0.02689048 -0.080887444 -0.11434742
0002e0 85 b2 cf bc 5f 3f 25 3d e0 22 53 3d a5 d7 80 3d
       -0.02535368 0.04034364 0.05154693 0.06291131
0002f0 8c ca ee bd ca d3 7b b8 e6 be 2c 3d 31 fc 87 3d
       -0.116597265 -6.0040307e-05 0.042174242 0.066398986
000300 c9 e9 32 bd 93 6d c8 bc d0 85 b7 bd fb 30 1b 3d
       -0.043679986 -0.024466312 -0.089610696 0.03788851
000310 83 4e da bd fc 02 5f bc 05 3d d7 bd e1 b5 d9 3c
       -0.10659506 -0.013611551 -0.105096854 0.026575984
000320 87 e4 ca 3c d0 8e b6 3b cb cb b8 bd 95 f9 a6 bd
       0.024767173 0.005571224 -0.090232454 -0.08153073
000330 e9 aa ac bc 71 48 c3 bd 3e 40 ce bc d5 42 70 3d
       -0.02107759 -0.095353015 -0.025177117 0.058657486
000340 9f de 3e 3d d8 6c 2c bc 9d 03 66 bd 99 c1 82 bc
       0.046599027 -0.010523997 -0.05615579 -0.015961455
000350 8b b6 59 bd 90 5d 3d bd fd db 8a 3d 76 2a 58 3b
       -0.053152602 -0.046231806 0.06780241 0.0032984293
000360 7d 27 d3 bd 90 5e de 3c 71 47 0c 3d 3c fa a1 bc
       -0.10310266 0.0271447 0.03424782 -0.019772641
000370 9e 1a 78 3c 8a 10 c2 bc 86 85 bd bd c5 51 04 bd
       0.015143065 -0.023689527 -0.09253983 -0.032304544
000380 61 3d b3 bd 30 90 9e bc 21 79 0f be 81 01 69 bd
       -0.087519415 -0.019355863 -0.14011051 -0.0568862
000390 74 ee fd bc 31 c0 68 3d 5b 69 b2 3a f2 fb 6e bd
       -0.030997492 0.056823913 0.0013611721 -0.058345743
0003a0 1b 72 e1 bd 7b b2 f7 bd a0 a7 a5 bd c6 15 64 3b
       -0.11008092 -0.12094589 -0.080886126 0.0034803017
0003b0 67 14 11 be b8 00 eb bc 33 43 ad bd 74 fe 1c bc
       -0.14167939 -0.028686866 -0.08460083 -0.009582151
0003c0 f4 22 0e be 1c c0 8a 3c d4 ad 4f bc ef df 49 3d
       -0.13880521 0.016937308 -0.012675721 0.049285825
0003d0 2d 1d 00 be f4 62 27 bd 7f 39 72 3b 50 aa 9a bd
       -0.1251113 -0.040865853 0.003696054 -0.07552016
0003e0 41 dc aa bc b7 da 96 3c 7c 14 ca bd 60 5d b2 bc
       -0.020856978 0.018414838 -0.09867188 -0.02177304
0003f0 b2 2e db bd f4 0d a2 3b 58 d3 af bd 2a 73 97 bc
       -0.10702266 0.004945511 -0.085852325 -0.018487532

2.bias f4 [64]
000000 ff ae 88 bd 10 9d df bd ff eb 78 3d 29 b3 ad bd
       -0.06674003 -0.10918629 0.06077194 -0.08481438
000010 92 d1 ae 3d 01 88 1b 3e c4 b3 9a bd 64 cc 2a 3e
       0.08536066 0.151886 -0.07553819 0.16679531
000020 a6 19 40 3e 50 ab 8d bd ec 08 78 bd 70 3e ae bc
       0.18759784 -0.06917441 -0.060555384 -0.021270007
000030 b0 ca b9 3b d8 8b 96 bd e8 70 bc 3d 69 15 40 3d
       0.005669914 -0.07350892 0.09201223 0.04689542
000040 22 00 a0 bc df 4f 23 3e e6 8c 29 3e 14 cb 9e 3d
       -0.019531313 0.15948437 0.16557655 0.07753578
000050 82 8c 9e bd fd d0 24 3d c2 4d 4c 3c 1b 39 2c 3d
       -0.077416435 0.04023837 0.012469711 0.042046648
000060 fa 31 94 bd 58 63 09 3e 63 81 ba bd bb c1 1f 3d
       -0.07236095 0.13416803 -0.0910671 0.039003115
000070 b9 a6 1f 3e c1 9f 76 bd bb 9d 2b bd 43 ef c7 bd
       0.15590943 -0.060210947 -0.04189847 -0.097624324
000080 86 f1 1e 3e 7a 7d fa 3d e0 0b db 3d 09 0b 65 3e
       0.15521821 0.12230964 0.10695624 0.22367491
000090 61 7b 66 bd 2f 24 86 3d 9d 48 da 3d 4d 01 5a 3c
       -0.056270007 0.0654987 0.10658381 0.013305974
0000a0 d9 d7 4a 3d 55 9a f0 bd cb b1 05 3e be 32 06 bc
       0.049522255 -0.117481865 0.13056104 -0.008190809
0000b0 20 28 03 be 13 ba 64 bc e2 8c bb bd 31 3d fc 3d
       -0.12808275 -0.013960379 -0.09157731 0.12316359
0000c0 5e 36 74 3d 9f 1f 0f bc c4 d4 64 bc a1 3c 37 3e
       0.05962216 -0.008735566 -0.013966743 0.17894222
0000d0 b5 19 1d bd f1 68 a0 3c 15 38 f6 3c c3 b3 c3 bd
       -0.038354594 0.01958129 0.030056039 -0.09555771
0000e0 2c 25 ae bd d6 83 c9 3d bc 48 44 3d 0e 5d cc bd
       -0.08503184 0.09839599 0.047920927 -0.09978686
0000f0 eb a5 eb bc c4 77 97 3c ae e3 0a 3d 4b cd 96 3c
       -0.02876564 0.018489726 0.03390854 0.018408438

4.weight f4 [32, 64]
000000 30 c4 c6 bd f5 d1 8f 3d 2f 2f ce bd 6e f3 d7 bd
       -0.097053885 0.07022468 -0.10067593 -0.105444774
000010 52 52 cc bd bb b2 20 be 0a 0d 07 bd b0 1d a5 3d
       -0.09976639 -0.1569318 -0.03297142 0.08062303
000020 c7 a1 04 be 51 ff a6 bc 43 fe df bd 64 1f 4f bd
       -0.12952338 -0.020385416 -0.109371684 -0.050567046
000030 72 d6 aa bc 20 13 d8 3c 3e d8 8a bc a1 ce c7 bd
       -0.020854209 0.026376307 -0.016948815 -0.09756208
000040 ef a8 3e be 7a 4a de bc fb 05 b0 bd 72 69 26 bd
       -0.1861913 -0.027135123 -0.08594891 -0.040627904
000050 c3 f5 43 3d d3 a2 e1 bd c9 41 b3 bd 88 27 f3 bd
       0.0478418 -0.110173844 -0.08752782 -0.11872774
000060 5e 2e b8 bd 49 80 42 3d 17 8a 8e bd d2 ea 79 3d
       -0.08993219 0.047485624 -0.06959932 0.061014958
000070 83 c3 0a be 2f c3 9a 3c 7e ec cf bd 13 82 ed bd
       -0.13551144 0.018891899 -0.10152529 -0.11597075
000080 6c 15 e9 bd ea 4f 9d bd d1 6c c5 bd 47 d3 11 3e
       -0.11381039 -0.07681258 -0.09639896 0.14240752
000090 5d 66 69 bc 4c 8d 13 bd a9 b1 09 3d d1 1b 38 bc
       -0.014245597 -0.036023423 0.033616696 -0.011237101
0000a0 0c 6b b3 bd f2 c6 12 3d 72 31 16 be 74 d0 2b be
       -0.08760652 0.03583426 -0.146673 -0.16778737
0000b0 4a 70 11 be 01 11 47 bd a8 54 4e bd b8 8d ce bc
       -0.14202991 -0.0486002 -0.050373703 -0.025214061
0000c0 b1 62 82 3d 36 ec 6b 3d 44 2a 93 3c 3b 85 b3 bd
       0.0636648 0.057598315 0.01796449 -0.08765646
0000d0 96 98 cc bd 81 2b aa bd bf 22 1a bd 2a 15 88 3b
       -0.09990041 -0.08309079 -0.037630793 0.0041529136
0000e0 cd 9e ea 3d b5 00 cb 3c 39 83 13 be 27 bc e1 bc
       0.1145607 0.02478061 -0.14405526 -0.027555538
0000f0 62 86 ae bd 62 e7 1d bc 0a 5c 54 3d d7 b9 92 3d
       -0.08521725 -0.0096376855 0.051845588 0.071643524
000100 a5 71 f5 bd d3 be c5 bd 67 9e cb 3d 1e 5d 05 be
       -0.119845666 -0.096555375 0.09942322 -0.13023803
000110 a0 7d 92 3c a2 29 c2 3c 75 48 d2 bd a1 61 13 be
       0.017882168 0.023701493 -0.10267726 -0.14392711
000120 02 54 80 bd b4 f1 84 3d 5f ab 0d be af de c0 3c
       -0.06266023 0.06491414 -0.13834904 0.023543684
000130 2f 07 ac 3d 48 97 b2 3d ce c7 e6 bd 11 53 26 bd
       0.08399808 0.08720261 -0.112685785 -0.040606562
000140 2f 5e 98 bc b4 b6 dd 3d 05 a3 ab bd cf 18 a1 3d
       -0.018599598 0.108258635 -0.08380703 0.0786606
000150 86 85 9b bc f0 c3 2e 3d c6 3b 94 bd e4 f3 bd bd
       -0.018984567 0.04266733 -0.072379634 -0.09275034
000160 69 f5 f9 bd 92 c2 43 3c 14 43 6d bc 5f 91 0a be
       -0.122050114 0.011948245 -0.014481325 -0.13532017
000170 f4 e7 a1 bd 55 eb de bd be 1a ef 3d 2d 06 31 bd
       -0.0790557 -0.1088473 0.116750225 -0.04321878
000180 96 bd 73 3d 3d be b5 bb bf 54 c6 3b 00 eb ee 3a
       0.059506975 -0.00554636 0.006052583 0.0018227994
000190 bc db 55 3d c1 d5 02 bd 05 50 d4 3c ea 42 01 be
       0.05221151 -0.031942133 0.025917063 -0.12623182
0001a0 c1 6a c6 3d cb 9a 6c bd 96 e4 77 bc c6 22 f1 3b
       0.096883304 -0.05776481 -0.015130183 0.0073588816
0001b0 b1 e5 7c 3d a7 af bc 3c f1 f7 07 3c c3 2f 00 bd
       0.06174249 0.023032976 0.00829886 -0.03129555
0001c0 3e 00 28 3d 60 3f c9 3d c4 49 81 3c 43 59 f0 bd
       0.041015856 0.09826541 0.015782245 -0.11735775
0001d0 13 a4 b9 bd 3c 3b 6f bd 54 2d a6 3c f2 22 bf bd
       -0.09064498 -0.0584061 0.020285286 -0.09332837
0001e0 0c ca f5 3c ed 15 03 3d d7 57 4f 3d 6a 63 e9 bd
       0.03000357 0.032003332 0.05062088 -0.11395915
0001f0 32 2c b8 bd 49 5f 4f 3d e2 c9 59 3d 9c 3d 76 3d
       -0.089928046 0.05062798 0.053171046 0.06011735
000200 00 5e d0 bd af d9 7b 3c 53 1c 2d 3e d1 92 b2 bd
       -0.10174179 0.015371724 0.16905336 -0.08719409
000210 09 f8 60 bd a3 de 91 3d 9f 11 26 be 79 a9 95 bd
       -0.054924045 0.07122543 -0.1621766 -0.07307715
000220 6c 38 97 3b 41 5b b9 bc 1d 22 7f bc 57 8b 9f bc
       0.0046148803 -0.022626521 -0.015572098 -0.019475622
000230 55 2e 81 bd b0 e4 a1 bc cc 6b b1 3d b8 24 85 3e
       -0.06307665 -0.019762367 0.08663139 0.26004577
000240 64 fe 14 be 50 d7 22 3d 34 ea 6c bd b8 c1 76 3d
       -0.14550167 0.03975612 -0.05784054 0.06024334
000250 42 b0 c6 3d ed f6 d5 3d df d2 31 bc cc 19 86 3d
       0.09701587 0.10447488 -0.010853498 0.06547889
000260 c1 2f 7a bc df 22 ab 3d ca 7d 3f 3d c3 cc d4 3d
       -0.0152701745 0.083562605 0.04675082 0.10390618
000270 1b b1 2d bd a6 f0 90 3d 58 bc e2 bc be 1c 8c bd
       -0.04240523 0.0707715 -0.0276777 -0.0684142
000280 18 c5 8b 3d 93 2f e6 bd 71 b4 5b bd 82 e5 cb 3d
       0.06824702 -0.11239543 -0.05363888 0.099558845
000290 e5 2f f1 bd 0c dd 6a be 52 04 71 bd 7e 37 c2 bd
       -0.11776713 -0.22935885 -0.05884201 -0.094832405
0002a0 c5 bc 0e 3d 88 40 6c 3d 5e a4 b0 3d a1 09 e8 3d
       0.034847993 0.05767873 0.086251006 0.113299616
0002b0 cb 1a 02 be fd 61 12 3c ac 2c 90 3d b7 11 f8 3d
       -0.12705533 0.008934495 0.070397705 0.12112754
0002c0 bf d2 06 3e 45 bf 3f bd 20 de aa 3d f6 d3 a0 bd
       0.13166331 -0.04681327 0.08343148 -0.07852928
0002d0 ed 35 1c bd 5a f5 c8 3d 5f 19 63 be ac f6 03 be
       -0.038137365 0.09812422 -0.22177647 -0.12887067
0002e0 eb 06 06 3b 13 1b 3f 3c bc d0 30 3d 14 41 25 3d
       0.00204509 0.01166417 0.043167815 0.040345266
0002f0 78 2f 9c bd 84 0e c4 3d 16 d5 d9 3c 0a 71 36 3d
       -0.076262414 0.09573081 0.026590865 0.044541396
000300 6c 37 26 bd 36 db 35 3d 2b e7 db bc 95 13 85 bd
       -0.0405802 0.04439851 -0.026843628 -0.064978756
000310 96 5d 53 3e b6 92 74 3b af c0 fb 3d d0 53 b1 bd
       0.20641169 0.0037318892 0.12292611 -0.08658564
000320 62 1b 03 be 8b 4c 8c be 26 3d 67 be 37 5c 57 3d
       -0.12803414 -0.27402148 -0.2258192 0.052578177
000330 1a bb 04 3d 62 07 69 be 30 8a 87 bd 1d ff 46 bd
       0.032404996 -0.22756723 -0.06618154 -0.04858314
000340 e1 9e eb 3b 94 ef 13 3e 21 87 b6 bd 94 09 09 3e
       0.0071905707 0.1444686 -0.089124925 0.1338256
000350 50 31 89 3d 01 0e 33 bc 09 e0 16 3e d9 56 ee 3d
       0.06698859 -0.010928632 0.147339 0.116376586
000360 e0 6f a0 bd 0b 80 8b bd f4 32 7a bd a4 be 6d bd
       -0.078338385 -0.06811532 -0.06108375 -0.058043137
000370 e5 9d 51 bc 61 c4 4f bc 80 87 7a 3b f4 f2 21 3c
       -0.012793993 -0.012681098 0.0038227737 0.009884585
000380 96 d3 18 be 10 22 aa be 43 b0 c5 bd 80 92 50 be
       -0.14924464 -0.33229113 -0.0965276 -0.20368385
000390 48 8d 65 3c 25 41 2b 3d 27 b4 f7 bd d0 cb 3d bc
       0.014010735 0.041810174 -0.12094908 -0.011584237
0003a0 a1 7e fe bc eb 66 c4 3c c5 b6 ab bc 1a a3 1f bd
       -0.03106624 0.023974856 -0.020961175 -0.038973905
0003b0 dc 22 69 bd 58 dc 8b 3d 05 04 21 bc 70 ba 84 3e
       -0.05691801 0.068291366 -0.0098276185 0.2592349
0003c0 4b 60 46 3e 60 c3 cd bd 02 1d b5 bd bf 60 b0 bd
       0.1937267 -0.100470304 -0.088434234 -0.08612203
0003d0 e7 ac 28 3d 1b 59 9b 3d 65 50 37 3e ff d4 38 3d
       0.041180518 0.07585355 0.17901762 0.045125004
0003e0 76 10 da 3d f8 46 3c be c8 ac 2c bd c7 d8 f9 3d
       0.10647671 -0.18386447 -0.042156965 0.1219955
0003f0 89 fc c0 3d 60 49 17 3c 7b bc b9 3c dc 43 52 be
       0.09423167 0.009233803 0.022672882 -0.20533699

4.bias f4 [32]
000000 37 40 21 3d f7 57 fa bc d7 38 47 be 72 fe 15 be
       0.03936788 -0.030559523 -0.19455276 -0.14647844
000010 d5 ff 5f 3e 69 f6 e7 3d 95 5c de 3d 0c cf 91 3b
       0.21874936 0.11326296 0.10857502 0.0044497307
000020 60 8a 96 bd 39 d5 1b 3e e3 2b 51 3e 80 5f c4 bc
       -0.07350612 0.15218057 0.20426898 -0.02397132
000030 67 7a ff bd f9 e9 47 3e 00 ae 4e bd 72 7f 38 3f
       -0.12474518 0.19522847 -0.050458908 0.72069466
000040 5d b5 e6 3d c7 2b 50 bd 5a 5f 9d bd 2d cd 32 3e
       0.11265061 -0.050823 -0.076842025 0.17461081
000050 59 1e 02 bc 55 5d 35 bc 07 20 f9 bd bc fc ed bd
       -0.007941806 -0.011069615 -0.12164312 -0.11620471
000060 36 35 1f be 81 b6 f9 3d 39 f3 02 be 9e ba b0 bb
       -0.15547642 0.12193013 -0.12788095 -0.0053933403
000070 6e 4e 07 bc 45 58 81 3d 1b ac 3c be 9a 9f 39 3d
       -0.008258445 0.06315664 -0.18425028 0.045318224

6.weight f4 [16, 32]
000000 72 09 0e 3c 14 4a 99 bd f7 78 04 3e 86 ce 3c 3e
       0.008669244 -0.074848324 0.1293677 0.18438157
000010 4e 77 a3 bd 58 7a 9a 3e 59 5b 95 3e 1e c7 7e be
       -0.0798174 0.30171466 0.29171255 -0.24880645
000020 cb 80 02 be 23 74 d2 3b 3e 65 30 3d 5f fa 58 be
       -0.12744443 0.006422536 0.043065302 -0.21189259
000030 ce 4b 05 be 58 9a bc bc cc 19 2c 3e a8 d8 b0 be
       -0.13017198 -0.023022816 0.16806716 -0.34540296
000040 61 ed d3 bd 47 24 9f 3c 6e e5 9f bc c4 e1 b1 bd
       -0.10348011 0.019426478 -0.01951858 -0.086856395
000050 6d f3 2c 3e 2b f8 5a bd bc 32 96 3d 56 6e 19 3e
       0.16889735 -0.053459328 0.073338956 0.14983496
000060 25 10 a4 bd 30 87 b5 3d 5e 1d 35 3d c0 1f 2f 3e
       -0.08010892 0.088636756 0.04421746 0.17101955
000070 de f1 4e 3d ec 95 e0 bd ac 14 84 3c cd 71 a5 3a
       0.05052363 -0.10966095 0.016123138 0.0012622416
000080 53 0a 0c 3e 28 28 45 be ac 7a 19 3e 7a 86 01 3e
       0.13675813 -0.192536 0.14988202 0.12648955
000090 d2 8d ef bd 2d 59 b1 3d 60 1f 9b bd 92 72 14 3e
       -0.11696972 0.08659587 -0.07574344 0.1449683
0000a0 40 cd 28 be 90 17 7c 3c 79 e3 51 3d 0a 3b 39 3d
       -0.16484547 0.015386477 0.051242325 0.04522232
0000b0 c6 89 fa 3d 5f 5e 50 bd f5 72 17 3d 34 5a 0d bd
       0.122333094 -0.05087125 0.036974866 -0.034509853
0000c0 79 20 4f 3c 6c 49 09 3e 4e e7 cf 3c 20 fb 28 be
       0.012642019 0.13406914 0.02537885 -0.16502047
0000d0 62 35 45 be a3 98 fa 3d d3 4e ca bd a3 09 5f 3d
       -0.19258645 0.122361444 -0.09878316 0.05445255
0000e0 38 4d 20 be cc b1 cc 3d d3 6a 2b 3e 50 28 3b be
       -0.15654457 0.099948496 0.16739969 -0.18277097
0000f0 8b 41 b5 3d 23 b3 f7 3d f0 35 3d be 3e b6 13 be
       0.08850392 0.120947145 -0.18477607 -0.14424989
000100 87 34 dd bd b5 79 c1 bd 31 37 ab 3c a8 62 ab 3e
       -0.108010344 -0.09447042 0.02090034 0.33473706
000110 28 80 0b 3e 9e 2e 9e bc e9 b2 ab 3d 10 ed 41 bc
       0.13623106 -0.019309338 0.08383734 -0.011836305
000120 88 87 36 bc f3 18 c0 3d af 5c 84 3d f2 02 06 3e
       -0.011140712 0.09379759 0.064629905 0.13087061
000130 61 42 84 3c 8a 67 23 bd 90 f6 a2 3d 90 b6 4e be
       0.016144933 -0.039893664 0.07957184 -0.2018683
000140 01 3f a4 bd 69 16 22 3e f6 47 1e 3e 55 db ad bd
       -0.080198295 0.15828861 0.15457138 -0.084891
000150 4d 71 25 3e 66 77 89 3d 33 1c 16 be 84 9a 1c be
       0.16156502 0.067122266 -0.14659195 -0.15293318
000160 ff 64 8f 3d 11 c4 62 bd c6 51 2c bc 7c 51 2d be
       0.07001685 -0.055362765 -0.010517543 -0.16925615
000170 c3 00 52 3e 9e 27 2d 3e c5 72 6b bc 8d f4 f6 bd
       0.20508103 0.16909644 -0.014370625 -0.12058363
000180 db 04 5a bd c8 29 fb 3d e5 6a b6 3d 06 c3 45 3d
       -0.053227287 0.122638285 0.08907107 0.048281692
000190 15 8d 39 3e 7b 37 04 3e 99 30 49 bd c0 43 09 be
       0.18120225 0.12911789 -0.049118612 -0.13404751
0001a0 03 98 1c be 91 bc 38 3d 53 0f 80 3d a9 e1 16 bd
       -0.15292363 0.045101706 0.06252923 -0.0368363
0001b0 85 a5 b2 3c 34 f2 6e bd e3 47 b0 bd 66 77 c7 bd
       0.021807441 -0.05833645 -0.08607461 -0.0973957
0001c0 02 75 12 3b ba 9a e0 3c 00 ca af 3d 74 fc 99 3d
       0.0022347574 0.02741753 0.0858345 0.07518855
0001d0 4a 9f 07 be 16 06 fb bc c9 c9 a5 3c b1 73 08 bc
       -0.13244358 -0.03064255 0.02023782 -0.008328364
0001e0 fe 9b a9 bd 1a 11 c0 3d ae 2c a6 3d 03 90 93 3d
       -0.08281706 0.09378262 0.08113991 0.072052024
0001f0 45 85 08 3e 93 62 ba bd f9 16 76 3d 38 c3 0c 3e
       0.13332088 -0.09100833 0.060080502 0.13746345
000200 eb df cb bd f1 c0 39 be 3f 4b db bb ed 80 bb be
       -0.09954818 -0.18140008 -0.0066923196 -0.366218
000210 91 8f 4e 3e c9 11 6a 3d 8e d1 7d be 63 33 9b 3d
       0.20171954 0.057145867 -0.2478697 0.075781606
000220 ea 88 80 3c 7a 01 bc 3d 73 fb c1 3d 08 49 4f 3d
       0.015690286 0.09179969 0.09471788 0.050606757
000230 da bb ba 3d 02 cb 2f 3e 81 e4 8c 3d d9 90 c2 3e
       0.09117861 0.17167285 0.06879521 0.38001135
000240 db ec d8 3b 48 9b 76 3d 98 5f 1f 3e 4a f8 d0 3d
       0.0066200322 0.06020668 0.1556381 0.102036074
000250 8f 41 df bd 50 91 4b be fe b9 e2 bd 97 4f 9f 3d
       -0.10901176 -0.19879651 -0.110706314 0.077788524
000260 f5 e2 8a 3c 1f e2 42 bd 93 c9 0d bd 4d c9 70 3e
       0.016953925 -0.047578927 -0.034616064 0.2351429
000270 5c 15 e3 bd d8 01 d0 3b cd 8d 94 3d 57 8b f0 3d
       -0.11088058 0.006347876 0.07253609 0.11745327
000280 f6 52 1a be 43 3a d7 3d 8b e5 ee bd 63 4d 2f bd
       -0.1507071 0.105091594 -0.116648756 -0.04279841
000290 c6 4e 5f 3d e5 b5 d3 3c 8e b9 eb 3d 8c e8 0f 3e
       0.054518484 0.02584357 0.11510001 0.14053553
0002a0 73 00 1e be b3 6b db 3d c8 d0 1a be f9 67 1a 3e
       -0.15429859 0.10713901 -0.15118706 0.15078725
0002b0 93 d2 e9 bd 7c 10 53 3d 9b 8a 1e be 76 cb 85 3d
       -0.11417117 0.051529393 -0.15482561 0.06532948
0002c0 50 02 25 3e f2 6b 95 3c e1 98 bb bd da 5f c6 3d
       0.16114163 0.018239949 -0.09160019 0.09686251
0002d0 2d 44 c3 3a 6e b6 03 be f2 b1 e7 bd 82 01 d1 bd
       0.0014897637 -0.1286256 -0.11313237 -0.10205366
0002e0 e5 32 47 be 5a cc d2 3d b7 80 ce 3a 6e 55 b0 bd
       -0.19453008 0.10292883 0.0015754913 -0.086100444
0002f0 cd ea 00 bb 31 61 fa bd 2f 1e 88 bd 87 af 40 bd
       -0.0019671202 -0.12225569 -0.06646382 -0.047042396
000300 f3 8b 8f bc d7 f7 f7 bd 18 31 1c 3d 91 86 8e be
       -0.017522788 -0.121078186 0.038132757 -0.2783704
000310 e6 91 e2 bd b0 03 5b bd c2 37 bb bd c1 a0 29 be
       -0.11062984 -0.053470314 -0.09141494 -0.16565229
000320 b5 de c0 bd 8a 8e 0b 3e b5 57 5e 3e 7e 9e e9 3c
       -0.09417478 0.13628593 0.21713145 0.028517958
000330 c9 04 96 3d 44 66 ff 3d 15 f5 ab bd 1e 4e 1b be
       0.073251314 0.124706775 -0.08396355 -0.15166518
000340 ba a8 ce 3d cf 9a 8f be 2b 3f 06 3d 18 c1 c7 3d
       0.10090776 -0.28047797 0.032775085 0.097536266
000350 ce 3e 54 be 99 45 12 bd db 0c 0a 3e 24 9b ba bd
       -0.20727083 -0.035710905 0.13481466 -0.09111622
000360 15 3a e0 bc 37 44 20 3e fb 58 b4 3d c2 14 3c 3e
       -0.027371446 0.15651022 0.08806034 0.18367293
000370 7f dc 24 be d1 ed a1 bd 3e 1a f1 bd 39 11 cb 3d
       -0.16099738 -0.07906688 -0.117725834 0.09915394
000380 e3 44 cb 3c ef 90 40 3e 70 ad 33 3e 90 04 09 3d
       0.024813121 0.18805288 0.1754663 0.033451617
000390 4e b3 2a 3d 35 18 8a 3d eb 6f 49 3e 20 a1 eb 3d
       0.041674905 0.067428984 0.196716 0.115053415
0003a0 f8 a6 a5 3c 3f 9d 12 3e 6b 1c c3 3c bb 58 a9 bd
       0.020221218 0.14317797 0.023817262 -0.08268877
0003b0 ca 3e 0e 3e 05 ca 5a be e6 9e b1 bc 9d 59 22 3d
       0.1389114 -0.21366127 -0.021682214 0.039636243
0003c0 bf e8 8e bd ca 7e 85 bc 6f f9 85 bc 1e 57 00 3e
       -0.069779865 -0.01629581 -0.01635429 0.12533233
0003d0 f1 a1 5a be 02 c5 c4 bd 0d dd 91 bd 29 b4 1e be
       -0.21350838 -0.09607889 -0.0712224 -0.15498413
0003e0 5a 21 55 bd c2 2e 9d bd 18 d8 1c be 9d f5 e7 3d
       -0.05203376 -0.07674934 -0.15316808 0.11326144
0003f0 a0 10 c2 3d 00 0e 80 be 47 a1 6f 3e ef 72 a1 bd
       0.09475827 -0.2501068 0.23401366 -0.0788325

6.bias f4 [16]
000000 d6 c8 5a 3e 5d 8e 2d be 81 1a 42 be 75 52 17 be
       0.21365675 -0.16948839 -0.18955423 -0.14777549
000010 63 72 27 3e 28 14 f0 bd 81 bf df bd 0c 1b da bd
       0.16352229 -0.117225945 -0.10925198 -0.1064969
000020 04 b1 7f 3c 40 44 2a 3d 8c 56 bf bd 37 0c 80 3d
       0.015606169 0.041568995 -0.093426794 0.0625233
000030 e5 67 09 be 4a b3 3e 3e 2e d9 3d 3d 20 6b 56 3d
       -0.13418539 0.18623081 0.046349697 0.052348256

8.weight f4 [2, 16]
000000 ca e0 b2 be 29 bb 50 be 1e 1a 4c be 3f 28 af 3d
       -0.34937125 -0.20383896 -0.19931838 0.08552598
000010 59 ab 8c 3d f4 f8 bc bd ef b5 03 be 48 27 ed 3d
       0.068686195 -0.092271715 -0.12862371 0.11579758
000020 ae 94 29 3d 10 3f 90 3c 9c 34 4f be f1 d8 21 be
       0.041401558 0.017608196 -0.20234913 -0.15805413
000030 d3 ad 6d bd 62 d3 31 3e b2 4b 8b 3e e6 14 a5 3d
       -0.0580271 0.17365792 0.27206188 0.08060627
000040 70 95 d9 bd 8d 86 2c be 54 5e fc 3d c2 ce 63 be
       -0.10624206 -0.16848202 0.12322679 -0.2224684
000050 c3 f7 2e bd 4e 19 0e 3e f8 fa 8a be 36 c8 8c be
       -0.042716753 0.1387684 -0.271446 -0.274965
000060 a1 47 e9 3d 38 bf 69 3e 09 24 28 be 40 22 3e 3d
       0.11390615 0.2282685 -0.16419996 0.046419382
000070 62 8b 80 be ac d3 36 3e 4d 9a 98 bd 03 f2 12 be
       -0.2510634 0.17854184 -0.074513055 -0.14350133

8.bias f4 [2]
000000 82 3e 42 be 20 cb 26 3e
       -0.18969157 0.16288424
